app/models/arsl_word_model.tflite (tflite, 366440 bytes, 10 tensors)

arith.constant3 f4 [10, 64]
000000 48 1a b3 3d 5e f0 6e 3e 68 cc 52 3e 28 4f 1a 3e
       0.08745247 0.2333388 0.20585787 0.15069258
000010 5c dd 06 be 90 fd 63 3e ea a4 b5 3e bb 5d 4e 3e
       -0.1317038 0.22264695 0.35477382 0.20152943
000020 70 20 ba be 5e 09 21 3e 3f 71 31 be 42 e4 c9 3d
       -0.36352873 0.1572623 -0.17328356 0.0985799
000030 60 72 ac bd 7f 8f 80 be 74 73 01 3d cc 9a 64 3e
       -0.08420253 -0.2510948 0.031604245 0.22324675
000040 c7 a6 40 bd 5c b5 a1 be 80 a1 bd 3e 38 3e 3e be
       -0.04703405 -0.3158368 0.37037277 -0.18578422
000050 97 9e a4 be a8 01 9b be ca 2b d6 be e5 7d 91 be
       -0.32152244 -0.302747 -0.41830283 -0.28416362
000060 73 34 0c 3e da 77 38 3e 39 9e 85 3e 3c 55 94 be
       0.13691883 0.1801447 0.26097277 -0.2897128
000070 5c 8e a9 3d a3 12 bd be 44 b8 30 3e b4 f6 1b bf
       0.08279106 -0.3692828 0.17257792 -0.60923314
000080 20 ad 92 3e b2 8a 82 be c0 f2 af be 34 2c a5 be
       0.2864771 -0.2549644 -0.3436489 -0.32260287
000090 19 7d 6e 3e 5a 45 76 3e bc 53 ab 3d 01 7a ff be
       0.23289908 0.24049893 0.083655804 -0.4989777
0000a0 38 c3 33 3e 3d 17 08 3e 5c 5b 2a be 77 88 20 3a
       0.17554939 0.13290115 -0.16636413 0.00061238505
0000b0 b4 37 58 be 75 9b 90 bd 98 84 65 be 48 ad a8 3e
       -0.21114999 -0.07060901 -0.22413862 0.32944703
0000c0 d1 f3 8d be f6 b7 8a be 75 10 dc bd 5d b2 df 3c
       -0.2772508 -0.27093476 -0.107453264 0.02730673
0000d0 c4 2d 89 be 7f 2d 9d 3e 90 81 43 be ca 99 42 3e
       -0.2679273 0.30698773 -0.19092393 0.19003978
0000e0 b7 88 ad be 53 20 9b be 99 f8 04 3e 6d b4 43 bd
       -0.33893368 -0.302981 0.12985457 -0.04777949
0000f0 7f 06 ea be 16 12 8f 3e aa 98 82 3e c8 0e 8d be
       -0.4570808 0.27943486 0.25507098 -0.2755034
000100 e9 95 a5 be 7d eb 7f be 48 38 aa bd d0 0d c2 be
       -0.32340935 -0.24992175 -0.08311516 -0.37901163
000110 7c 16 2e bc 34 da c7 3d 7a c1 51 3c 01 49 08 3e
       -0.010625478 0.09758416 0.012802476 0.13309099
000120 b3 8a 89 3e 55 a2 a2 3e 0b cc 15 3e c8 13 24 3e
       0.26863632 0.31764475 0.14628617 0.16023171
000130 cb 8f ae 3d ec 71 fc bc 11 00 5b 3e fc b3 ad bb
       0.0852352 -0.030816041 0.21386744 -0.005300997
000140 fb cb 88 be 28 6c 76 3e f7 dd 70 be c1 52 a5 be
       -0.26718125 0.24064696 -0.23522173 -0.322897
000150 c4 d1 3c be 5d 05 a7 3c 4a 0c 05 3e 15 a6 70 3e
       -0.18439394 0.0203883 0.12992969 0.23500855
000160 b7 52 92 be 54 1c ce bd b8 90 b7 be 7b 87 04 be
       -0.2857873 -0.10063997 -0.358526 -0.12942307
000170 60 7d f5 be d7 6c 14 bf a8 63 fd 3c 97 7e ea bd
       -0.47947216 -0.57978576 0.030931309 -0.11449926
000180 ec 3a 6b be 6e 50 8a bd 8f 3c 8c 3e 23 31 fb be
       -0.22971696 -0.06753622 0.27389953 -0.49060926
000190 14 cd 29 bb 59 5c 05 bf 61 40 87 3d 9d 59 ce be
       -0.002590959 -0.52094036 0.06604076 -0.40302745
0001a0 2c c2 26 be 15 ed d1 bd 1a d3 9e be 1e 52 b2 be
       -0.16285008 -0.10250298 -0.31020433 -0.34828275
0001b0 5d 7e bc 3b 1b 86 15 3e 89 3e 93 3d 9d d8 5a 3e
       0.0057523684 0.14601938 0.07189662 0.21371694
0001c0 d1 29 36 be e5 6c 39 3e 1b e2 52 be 22 24 86 3e
       -0.17789389 0.18107946 -0.20594065 0.26199442
0001d0 b7 2f d0 be ab 8b 8e bd e9 31 29 3e 03 8e 9a 3d
       -0.40661404 -0.06960233 0.16522945 0.07546618
0001e0 cf f4 38 be bd 31 58 be 99 a0 fc bd bc d5 3c 3e
       -0.18062137 -0.21112724 -0.12335319 0.18440908
0001f0 ec 12 30 bb 3d 4e a0 3e 6b 0f 22 bd 4a 9e c6 bd
       -0.0026866747 0.3130969 -0.039565485 -0.0969816
000200 de 14 2f be c8 a3 88 3e 63 bf 00 bd 8b 78 3e be
       -0.17097804 0.26687455 -0.03143252 -0.18600671
000210 fa 77 82 bc 36 0c 87 3e 1f 48 7f be 35 c6 b7 be
       -0.01592635 0.26376504 -0.24929856 -0.35893407
000220 ee 54 9e be 58 99 dc be 51 8c 88 3e 94 a3 d0 be
       -0.3092417 -0.43085742 0.26669553 -0.407498
000230 82 17 bc bc 70 f9 16 3c f1 f6 02 bd 74 77 4d 3e
       -0.022960428 0.009214744 -0.031973783 0.20065099
000240 21 57 87 3e 65 50 58 be 84 5e 31 bf 6a 0c 05 be
       0.26433662 -0.21124418 -0.69284844 -0.12993017
000250 bc ce 95 3e 80 a3 06 3d 2b 6d a4 3e 6e 88 94 3e
       0.29259288 0.03287077 0.3211454 0.29010338
000260 6d ea 27 be 4e 17 ae 3e e6 51 d5 be 71 eb 1e 3d
       -0.1639802 0.34002155 -0.41664046 0.038798753
000270 c3 44 40 be c8 ee 8f 3e 3e aa 20 3d c9 90 cb bd
       -0.1877623 0.28111863 0.039224856 -0.09939725
000280 3a 85 a3 3e 31 fa 5a be 74 00 f0 bd c7 ff 71 be
       0.3193758 -0.21384503 -0.117188364 -0.23632728
000290 ca 84 8b 3e f4 9d 4a 3e db e0 52 3e 67 bf 59 be
       0.27249748 0.19786817 0.20593588 -0.2126442
0002a0 24 40 94 3d 59 02 5b be 6d 91 8a 3e 10 1d c4 3e
       0.07238796 -0.21387614 0.27064076 0.38303423
0002b0 db a0 32 3c a8 4f 71 be 17 33 a5 be 35 0b 94 3e
       0.010902609 -0.23565543 -0.3226554 0.289148
0002c0 b1 c0 4f 3e 49 44 2a 3e 59 c4 72 be b7 df b0 3e
       0.2028835 0.16627611 -0.23707713 0.3454568
0002d0 db 89 a0 be 56 10 11 be e4 8f 32 be 32 a3 8e be
       -0.31355175 -0.14166388 -0.17437702 -0.27858883
0002e0 f9 31 ce bd 04 88 c8 3e 47 db ea bc c3 8b e2 3b
       -0.10068125 0.39166272 -0.028669013 0.0069136336
0002f0 fb 54 3c 3e 46 92 67 3d bd 36 77 3d 94 3d 07 3e
       0.18391792 0.05653598 0.060354937 0.13207084
000300 0b 79 86 3e 20 7e 89 bd fd 36 4a be a0 3c 52 be
       0.26264223 -0.067135096 -0.19747539 -0.20530939
000310 82 d7 d5 3c d7 64 85 be 9a cf 19 bc 6c ae 87 3e
       0.026103739 -0.26053497 -0.009387875 0.2650026
000320 72 28 7a 3e d1 e5 8b 3e f4 dd fd be 7c 46 dc be
       0.24429491 0.27323774 -0.495834 -0.43022525
000330 95 92 2a be 30 60 05 3e 54 76 5d be cb 9c 1e bf
       -0.16657479 0.13024974 -0.2162717 -0.61958
000340 ed 26 88 be 01 43 4d be 9d 1b 37 be 5d f0 1b be
       -0.26592198 -0.20045091 -0.17881627 -0.1522841
000350 e6 11 88 3c 65 cc a8 3e 7c 1b 84 3e f0 39 8a 3e
       0.016610097 0.3296844 0.2580222 0.26997328
000360 a1 96 96 3e 35 ea 0b be 35 5b 74 be 47 cc e1 be
       0.29411796 -0.13663562 -0.23862918 -0.44101164
000370 54 38 9a bd 06 e8 47 be c8 ec b3 3e 4a 5a 4c 3e
       -0.07530275 -0.19522104 0.35141587 0.19956318
000380 e0 f3 32 3e 75 79 fc 3d 6c 2f 8b 3e bf e0 04 3e
       0.17475843 0.123278536 0.27184618 0.12976359
000390 73 85 43 be fd b2 98 be 95 2d 1c 3e ec fd aa 3e
       -0.19093876 -0.29824057 0.15251763 0.33396852
0003a0 7f 4c 82 be 1c bf 5c 3e 75 b4 bf be 8d 84 de 3d
       -0.25448987 0.21557277 -0.37442365 0.10865126
0003b0 65 dc 6e bd c7 e4 8a be 93 2b c9 bd 6b ce c4 3d
       -0.058315653 -0.27127668 -0.09822764 0.096096836
0003c0 6d d0 b5 3d 3e 5b e7 bb 68 e4 1f 3e be 7c 2c 3d
       0.08877645 -0.0070604375 0.15614474 0.04211115
0003d0 67 b9 3e be c4 f1 1d bc 91 c5 95 3d 51 95 5d bd
       -0.18625413 -0.009640161 0.073130734 -0.054097477
0003e0 f5 53 91 3d ff a8 62 3e b7 a1 2b 3e 0a 53 5c be
       0.07096092 0.2213478 0.16760908 -0.21516052
0003f0 e6 5f 49 be bd ab 5d be 77 7c 64 bb 20 e0 8d be
       -0.19665489 -0.21647544 -0.0034864226 -0.27710056

arith.constant4 f4 [64, 64]
000000 f1 bf 63 3e af 84 00 3e 40 e6 c5 bc e5 3f 36 3e
       0.22241189 0.12550615 -0.024157643 0.17797811
000010 3a 49 f5 3d 66 fb 78 bd f3 ee 9a be f0 a4 88 be
       0.119768575 -0.060786627 -0.3026043 -0.26688337
000020 10 5d 03 be e3 22 10 b9 e8 c3 a6 3d 3e 0a 05 3d
       -0.1282847 -0.00013745906 0.08142835 0.03248047
000030 0d 14 d4 3d 6d aa 61 3d 99 81 90 3e 2a 6f 02 3a
       0.10355387 0.05509417 0.28223875 0.0004975671
000040 d5 54 9b 3e d3 b7 0d bc 5a df a7 3d 10 c4 b9 bd
       0.3033816 -0.008649784 0.08196898 -0.09070599
000050 51 0a 9d 3e 96 dc 0f be 1c 9c 90 bb 85 89 2f 3d
       0.30671933 -0.1404899 -0.004413141 0.04285576
000060 47 ac c8 3d 3c c5 b9 3e 6c db 38 bd 02 a3 65 be
       0.09798484 0.3628329 -0.045131132 -0.22425464
000070 1a 35 5d be 63 05 5c bc 79 92 82 bd 5f 1a fe 3d
       -0.21602288 -0.013429019 -0.06375594 0.12407374
000080 19 9d 13 bd a6 95 ab bd 4d c8 08 3e 0e b1 e9 3d
       -0.036038492 -0.083781525 0.13357659 0.114107236
000090 a2 9c c2 3d f7 e8 94 3d 26 da 4f 3d 5c 98 39 3d
       0.095025316 0.07270997 0.050745152 0.045311317
0000a0 5f 83 9b be ff 3d 2d 3e f7 85 fc 3d 06 88 6e bc
       -0.30373666 0.16918181 0.12330239 -0.014558798
0000b0 b4 20 22 bd 0e 14 43 be 14 d5 be 3c f4 0a 48 bc
       -0.03958197 -0.19050619 0.023294963 -0.012209643
0000c0 68 7b 83 be 37 6e d4 3d dd 16 d3 bd e2 74 89 3e
       -0.2568009 0.10372584 -0.10307095 0.26846987
0000d0 e8 bb 3f bb e6 52 47 3d a7 95 11 3d 3f 2a ab 3e
       -0.0029256288 0.048663042 0.03554311 0.3343067
0000e0 a4 ed 8f bd c9 e2 8d be 2f fd a0 be 65 7b 82 bc
       -0.07027748 -0.27712086 -0.31443164 -0.01592798
0000f0 51 11 0b 3e 79 e1 0d 3e 14 0a 63 3e bc 51 e7 bd
       0.13580824 0.13855542 0.22171813 -0.112948865
000100 67 17 a7 3e ef 7b c3 be 94 f0 2a 3e f3 24 31 be
       0.32635042 -0.3818049 0.16693336 -0.17299251
000110 cb 2c af 3d 19 af 89 3d 14 5c d6 3c 8b 75 37 be
       0.085534655 0.0672285 0.026166953 -0.17915933
000120 d0 9d 64 3e 02 52 4d be 25 a7 b9 bd c7 50 8d bd
       0.22325826 -0.20050815 -0.090650834 -0.06900173
000130 50 60 51 be 9d fa 89 bd 4d 9b 13 3d f3 e4 7a bd
       -0.20446897 -0.06737254 0.03603678 -0.0612535
000140 77 ee 53 3e 97 47 64 3e ee e8 cb bd 2d 1f 2e be
       0.20696436 0.22292934 -0.09956537 -0.1700408
000150 ac 2f ef 3d e8 cb b1 3d b6 07 20 3e 5a b1 09 be
       0.116790146 0.0868147 0.15627941 -0.1344656
000160 9e 41 0c bd 9a 19 e4 bd 75 ad ba 3d 88 a0 ef 3d
       -0.034242265 -0.111376956 0.091151156 0.11700541
000170 93 d3 67 3e 4d 07 b0 3d ed df 3f 3e 34 0a ca ba
       0.22639303 0.085951425 0.18737765 -0.0015414418
000180 28 d0 64 bd a7 dc 8f bd 4e ee 09 be c0 6a be 3e
       -0.055862576 -0.07024508 -0.13469812 0.3719082
000190 e0 f3 d5 bd eb 37 07 3e 2e c6 98 3e 47 0b 77 3e
       -0.10446906 0.13204925 0.298387 0.24125396
0001a0 90 b1 8f bc 8b 3a 85 3d 4e 53 32 be 32 b2 b7 3d
       -0.017540723 0.06505307 -0.1741459 0.08969535
0001b0 34 1b 13 3e 26 6f 97 bd a6 44 8b bb 0a ae dc bc
       0.14365846 -0.07394247 -0.004250127 -0.026938457
0001c0 f9 5d 13 3e 03 41 5f be 98 ba 45 3e 24 52 86 3e
       0.14391316 -0.21802144 0.19309461 0.26234543
0001d0 fe 33 50 3d b3 b1 22 be b8 f8 c3 3d a1 f9 a1 3d
       0.050830834 -0.158881 0.09568924 0.07908941
0001e0 70 06 40 3e 67 91 e8 bd 0f 33 de bd 57 1e e1 3d
       0.18752456 -0.11355858 -0.108495824 0.10992115
0001f0 79 71 02 3e c3 69 ba 3b 56 75 9b 3e c1 cb 4d 3d
       0.12738599 0.0056888773 0.30362958 0.050243143
000200 7e fc 81 be 7b 58 07 3e c1 1d 3d be 4e 14 a9 bd
       -0.2538795 0.13217346 -0.18468381 -0.08255826
000210 17 fe 0f be 6b 09 cb bd 9f fd 38 3e 92 61 27 3b
       -0.14061771 -0.09913906 0.18065499 0.0025540334
000220 12 46 9b bd c7 08 1e 3e 76 d6 42 be 81 65 2f 3c
       -0.07581724 0.15433036 -0.19027123 0.010705353
000230 06 09 09 bd a8 ff 0b be 4d 9f 9f bd 75 7d 4e be
       -0.03345587 -0.13671744 -0.07794056 -0.20165046
000240 1b 0c 1a bc d9 7c 5d 3d 97 19 db bd 76 a3 ca 3c
       -0.0094023 0.054074142 -0.1069824 0.024736147
000250 2b 59 aa bd b1 b7 f4 bd f1 4e ab bc 8a 3a 87 be
       -0.08317789 -0.11949099 -0.020911666 -0.2641185
000260 77 1a 82 bc af ef f4 bc 0f 16 1b be ec cc 0b 3e
       -0.01588176 -0.029899446 -0.15145133 0.1365239
000270 2a 91 1c be e0 ec 01 3d 9c ea 4e be aa 91 94 3d
       -0.1528975 0.031720042 -0.20206684 0.07254346
000280 04 bb c7 bd 36 b4 02 be c1 0a 22 3e 97 16 6c be
       -0.09752467 -0.12764058 0.15824415 -0.23055492
000290 55 cc 89 bd 53 f8 9b bd ec 8d 96 bd 5b 67 8a 3d
       -0.06728426 -0.076157235 -0.07351288 0.06757995
0002a0 5a 6f ea 3d 40 63 e3 3b c0 bf 99 bc fd fd ef bd
       0.1144702 0.0069393218 -0.018768191 -0.11718366
0002b0 0e f6 1f be 83 64 fe bc 5a 54 bc bc 8a be 94 3e
       -0.15621206 -0.031053787 -0.02298944 0.2905162
0002c0 c5 db 46 bc 7f 39 55 bd 9b 60 5b bd 0e c1 5d bd
       -0.012137358 -0.052056786 -0.053558927 -0.05413919
0002d0 0f d4 26 be 3a 51 d6 bd 27 4f 11 3e 21 97 4a be
       -0.16291831 -0.104647115 0.1419035 -0.19784214
0002e0 f5 03 41 be 12 c1 e5 3d 81 4b 2b bd 30 84 90 3d
       -0.18849166 0.11218466 -0.041820053 0.07056463
0002f0 30 6b f0 3e 7e 36 c3 3d 55 ca 58 3b 0c 59 36 be
       0.46956778 0.09531878 0.0033079584 -0.17807406
000300 3b 14 20 3d ad d3 09 3e fc 19 bd 3e ba cb 56 3b
       0.039081793 0.13459654 0.36933887 0.003277524
000310 f0 a8 21 be c0 e7 bf bd f6 86 a1 bd de ff 9e 3d
       -0.15787101 -0.09370375 -0.0788707 0.077636465
000320 77 cc 1d bd c3 c4 54 be 2b d3 9c 3d 4f ef ae be
       -0.03852507 -0.20778184 0.076574646 -0.34166953
000330 60 f1 2a 3e ca 64 e2 3d 94 3b 6a 3b 52 12 c3 bd
       0.1669364 0.1105438 0.0035741078 -0.09524979
000340 76 1f e7 bd e2 2e 79 be 92 73 6e 3d a0 1e 98 be
       -0.112852976 -0.2433429 0.058215685 -0.29710865
000350 cb aa 69 3e 92 0c 87 3d 16 f5 ed 3d 63 ae 15 3e
       0.22819059 0.065941945 0.11619012 0.14617305
000360 f7 dc 56 3e 13 8a ae 3e 68 82 11 3e c5 4a 82 3d
       0.20982729 0.34089717 0.14209902 0.063619174
000370 ed c9 5f bd 4d 92 f5 3d 1e ea fe bd 67 9c 79 3d
       -0.05463593 0.11990795 -0.12446998 0.060940173
000380 63 35 e7 3c 84 6a b9 3d 75 b5 e8 bd e3 4a 3c bc
       0.028223699 0.09053519 -0.11362735 -0.011492464
000390 49 9f c2 be 7b 79 3f 3e 20 1d bf 3e 8d 88 71 3d
       -0.3801215 0.18698685 0.37326908 0.058968116
0003a0 2b 93 46 3e 37 b5 ba 3d 1f c0 39 bd be 8d f8 bb
       0.19392078 0.09116595 -0.045349237 -0.0075852564
0003b0 9c 44 7a 3e 06 2c 1d be 03 6e 41 bd 39 8b dd 3d
       0.24440235 -0.15348825 -0.047224056 0.1081757
0003c0 09 b0 38 3d 0a 8c 7b be 12 ed d6 bc 19 3a 45 3e
       0.045089755 -0.2456514 -0.02623609 0.19260444
0003d0 15 ad e8 bc ea 5e d9 bd d8 cc 6a be f2 cf c4 bd
       -0.028402844 -0.106138065 -0.22929704 -0.09609975
0003e0 a8 2b 2b 3e c2 63 a2 be 38 1c b5 be cc 5a 76 be
       0.16715872 -0.31716734 -0.35373092 -0.24058074
0003f0 d0 61 a1 3d d2 6e 10 3d 8d a5 b2 3d 10 ab 7c be
       0.078799844 0.035261936 0.087229826 -0.2467463

arith.constant5 f4 [10]
000000 97 f0 bb 3d 1f 32 fd 3c 79 2b 15 3d 8d 58 7c 3d
       0.09176748 0.030907689 0.036418412 0.061607886
000010 d5 f4 a9 bd 82 55 8b 3d 3e 97 af bd d9 5f 1e bd
       -0.08298651 0.06803419 -0.08573769 -0.038665626
000020 63 db be bd f2 cf b7 bd
       -0.093191884 -0.08975209

arith.constant6 f4 [64]
000000 ab 54 af 3d 3e 1a 9f 3d f6 ce 5e bc 48 77 87 3d
       0.08561071 0.07768677 -0.013599148 0.06614548
000010 8b 95 53 3d a0 52 bd 3d 47 1d 03 3e 4f 36 1e 3e
       0.051656287 0.09244275 0.12804137 0.15450405
000020 75 8b 82 bc 35 8c 82 3e 1f 86 53 3d 0b 8e 19 3e
       -0.015935639 0.25497594 0.05164158 0.14995591
000030 a3 9e de bd 8d e2 39 3d 9e 11 46 bd 68 95 ce 3d
       -0.10870101 0.04538207 -0.048356645 0.10087091
000040 3c 02 cd bc e9 09 04 3e 6b 44 e9 3d 19 89 2b 3c
       -0.02502548 0.12894405 0.11390003 0.010469698
000050 c5 6c 20 3d d8 f8 19 3e 67 1d 00 3d f6 34 c3 3d
       0.03916623 0.15036333 0.03127804 0.09531586
000060 48 03 ae 3d 77 26 af 3d ca fc 42 3d ee 78 ed 3c
       0.084967196 0.085522585 0.04760436 0.028988328
000070 8b 51 e9 3c e1 c9 79 3d 8c 2f 2e 3e cb 26 18 3d
       0.028481266 0.060983542 0.17010325 0.03714637
000080 f9 79 fb 3d 7a 53 3d 3c c4 a1 de 3d 18 1a 17 3b
       0.12279124 0.011555547 0.10870698 0.0023056325
000090 94 26 2d bc 4c 8f 83 3d f6 9a 60 bd 4f ff 84 bc
       -0.01056828 0.06423816 -0.054835282 -0.016235022
0000a0 5a 46 fa 3d 65 4d fd 3d 3e 17 64 3d a7 ad 51 3d
       0.1222045 0.123682775 0.055686228 0.051191
0000b0 7d a4 71 3d a6 72 ad bd 4d d3 8d 3d 0d 1c 9e 3d
       0.05899476 -0.08469133 0.06925068 0.07720194
0000c0 fd a3 79 bc 3b a1 41 bd 39 ef 0c ba 5d 67 c2 3d
       -0.015236852 -0.047272902 -0.0005376223 0.09492371
0000d0 50 98 f0 3c dd 31 16 3e dc 5c 25 bd a2 09 88 3d
       0.029369503 0.14667459 -0.04037176 0.06642462
0000e0 c1 66 4a 3d 59 b0 73 3d 51 67 e1 3d 86 a6 3f bd
       0.0494144 0.05949435 0.11006034 -0.04678967
0000f0 2b 61 40 3c 4d 38 0b 3e ea 0a f3 3d 9d 78 ba 3c
       0.011741917 0.13595696 0.11867316 0.022762591

arith.constant18 f4 [256, 126]
000000 fe 96 3c 3e 37 74 95 3d 86 76 b1 3e c6 d3 82 bc
       0.18416974 0.07297557 0.3466074 -0.015970122
000010 11 3e 70 3c 23 7f f3 bd a6 e8 53 3e 84 f5 df bc
       0.014663235 -0.11889484 0.20694217 -0.02733875
000020 f0 82 88 3d fa 7b 0f bd a6 17 8e 3d eb 42 5a 3b
       0.06665599 -0.035030343 0.06938104 0.0033304046
000030 91 a1 3b 3d 4c dc 85 3d 67 ec c0 3d 30 21 49 3e
       0.04580838 0.06536159 0.0942009 0.19641566
000040 d8 1c 38 bd 80 97 0b 3e 47 f5 42 3e 74 71 ad 3c
       -0.044949383 0.13632011 0.19038878 0.021172263
000050 7c 5a 3e 3c 94 44 83 3d 13 2c 8d bd b9 bf 5d bd
       0.011618253 0.064095646 -0.06893172 -0.05413792
000060 d3 76 11 3c 05 5f d5 3d 88 1e ea 3c e6 e1 33 3e
       0.008878428 0.10418514 0.028579012 0.17566642
000070 a5 42 43 bd 22 3c c5 3d 08 07 30 3d 00 48 4b 3d
       -0.04767098 0.0963061 0.042975456 0.04962921
000080 b1 42 b4 3d de 55 19 3e 14 45 77 bd ad f1 b5 bc
       0.08801783 0.14974162 -0.060368612 -0.022209967
000090 51 a5 fb 3c 5a 17 80 3d ab 97 5b 3d 25 f1 8a bc
       0.030718477 0.06254454 0.05361144 -0.01696069
0000a0 36 6e f0 3d a6 5b 0c 3e 48 0d 02 3e 87 10 e2 3b
       0.11739771 0.13706836 0.12700379 0.006898943
0000b0 04 ca ae 3c da a3 f3 bc 64 d7 62 3b 78 d3 2e 3d
       0.021336563 -0.029741216 0.0034613246 0.04268214
0000c0 f9 da 45 bd f4 c1 f4 bd a4 c9 d5 bd 75 9d 1e bd
       -0.04830453 -0.11951056 -0.104388505 -0.03872438
0000d0 7b c7 cc 3d 27 b1 04 3e 55 52 b1 3d 9b f0 5b bb
       0.099989854 0.12958203 0.08658282 -0.003356016
0000e0 23 57 bb 3d b5 8a 10 3d 1b 98 f2 3d 30 2e ea bd
       0.091474794 0.03528853 0.11845418 -0.11434591
0000f0 95 cd ba 3d ad 75 bf bd 80 06 4d bd d9 ce 12 be
       0.09121243 -0.09348617 -0.050055027 -0.14336719
000100 48 c6 02 3e ef 55 eb bd 79 df ad bc 8a f4 1c 3b
       0.12770951 -0.11491 -0.021224724 0.0023949468
000110 ed 91 67 3e 20 92 38 3c d5 05 11 3e 32 d6 98 3e
       0.2261426 0.011265308 0.14162381 0.29850918
000120 40 b1 d5 ba d6 fa b0 3d 76 67 99 3e 5a 94 d9 bd
       -0.0016303435 0.08641593 0.29961747 -0.10623999
000130 6d 55 15 3e 2f 80 52 3e 22 7f 2a 3e 23 a8 e7 3d
       0.14583369 0.2055671 0.1665006 0.113113664
000140 e9 7d 24 3e 85 85 21 3d fb 36 8c bd 1a 6f b5 3d
       0.16063656 0.039433975 -0.06846424 0.088590816
000150 89 06 3f bc 0e d9 5b bd 38 0a ea bd 48 15 a6 3c
       -0.011659273 -0.053673796 -0.1142773 0.02027382
000160 2d ff 01 3d d1 6a 9c bc ce 70 45 bd 0d ed 34 bd
       0.031737495 -0.019093903 -0.048203282 -0.04417138
000170 c1 31 28 3d 57 56 c6 bd 8d aa f0 bc a5 dd a1 bd
       0.041063074 -0.09684437 -0.0293782 -0.079036035
000180 3d 56 13 bc d5 cd 89 3d 83 b7 62 be 61 d6 64 3e
       -0.008992729 0.067287125 -0.22140317 0.22347404
000190 e6 a6 47 3d a0 ae 73 be ad 7a 95 3b 3e 7a aa 3d
       0.04874315 -0.23797083 0.0045617432 0.08324097
0001a0 dc 1c 10 be 3c 69 fa 3d c0 4d f4 3d f0 16 c9 bd
       -0.14073509 0.12227103 0.11928892 -0.09818828
0001b0 45 07 77 bd 78 3c f9 3d 50 e2 ba bd 2f 04 29 3e
       -0.060309667 0.121697366 -0.09125197 0.16505502
0001c0 eb ac b5 b9 21 6b a4 be 5c b9 82 bb ad 05 0e bc
       -0.00034651844 -0.32112983 -0.0039893817 -0.008668345
0001d0 d9 18 74 be 54 41 13 bd ce 8a 0e bc 8e 14 83 bd
       -0.23837604 -0.035950974 -0.008700086 -0.06400405
0001e0 31 4c 97 3d 7f fa ac 3d bb f7 21 be 1e 7c e4 3c
       0.07387579 0.08446216 -0.15817158 0.027891215
0001f0 28 18 0d 3e 69 07 86 be 4c ed cd bd db 7e 71 3c
       0.13778746 -0.26177529 -0.100550264 0.014739717
000200 a8 17 89 3d 69 dd 2d 3d da a2 8b bd df 46 ad 3d
       0.06693965 0.04244748 -0.06818171 0.08460783
000210 79 17 9d 3d 53 1f fd bc b3 2a 99 3d 0a c4 88 3d
       0.07670493 -0.030898726 0.07478847 0.066780165
000220 5c ff 51 b9 13 3b 7e bd 78 e6 0b bd c7 d2 11 3c
       -0.00020026922 -0.062068056 -0.03415534 0.008900351
000230 b2 24 88 bd 52 ec 05 bd 21 6a c7 3d dc a2 1d 3d
       -0.06647624 -0.032696076 0.09737039 0.038485393
000240 5b ed 72 bc ec 80 a6 bd 60 00 23 3d 42 d1 32 bd
       -0.014827098 -0.08130059 0.03979528 -0.043656595
000250 bd b1 9c 3d 33 a6 cf bd 7a a2 28 3d 2e f3 22 3d
       0.076510884 -0.10139122 0.041170575 0.039782695
000260 6c 96 00 3e 5f 66 9f bd 48 63 58 3d f1 f5 bd 3a
       0.12557381 -0.077831976 0.052829057 0.0014492852
000270 7a 80 9d 3c e4 71 e6 3d 27 31 0d 3d 4c e8 eb bb
       0.019226301 0.11252192 0.034470703 -0.007199323
000280 41 c3 08 3e 9a fe 3b 3d 97 86 1e bd 7a bd c4 bd
       0.13355733 0.045897104 -0.038702574 -0.09606452
000290 fb 59 6e bc 53 d0 f5 3d 4f f9 ee 3c 76 f4 54 bb
       -0.01454782 0.12002625 0.029171614 -0.0032494343
0002a0 50 f8 85 3b 10 15 05 3e d7 1c dc 3d c8 5a 81 3c
       0.004088439 0.12996316 0.10747688 0.015790358
0002b0 d6 09 66 bd 84 19 bf bd 19 df 84 bd 87 96 a5 3d
       -0.056161724 -0.093310386 -0.06487865 0.080853514
0002c0 02 24 e0 bd 8d 8a 28 bd 9b db 84 3d 82 ab e6 3d
       -0.10944368 -0.041147757 0.06487199 0.11263181
0002d0 2d 96 a0 bd cd 8e 63 bd 50 9d a0 bd 64 c1 1f bc
       -0.07841144 -0.055556107 -0.07842505 -0.009750698
0002e0 3b aa 23 3d ac 1a 0b 3e f5 86 ae 3d 56 84 2c bd
       0.039957266 0.13584393 0.08521835 -0.042118393
0002f0 6e 4f 1a 3c 9c af f7 3d ef a8 02 3e db a5 99 3c
       0.009418352 0.12094042 0.12759756 0.018755844
000300 1a 38 dc bd 6d 4d bd 3d 43 98 a0 3c d7 42 ed bd
       -0.10752888 0.092432834 0.019603854 -0.11585014
000310 17 b6 37 bd 9b 56 cb bc 3a 0a 30 bd 8c 7d ab 3d
       -0.04485139 -0.02482157 -0.042978503 0.083735555
000320 19 e6 95 bd 7f fe f3 3d 49 fe 2d 3d 64 08 29 3d
       -0.07319278 0.11913776 0.042478833 0.041267768
000330 39 52 c8 bd 37 62 83 3c 3f c5 12 3d a3 f5 af bd
       -0.09781308 0.016038043 0.03583264 -0.08591773
000340 8c 5d d1 bc 99 2b 47 bd ea de 26 bd ed f8 20 bc
       -0.025557302 -0.048625562 -0.04073993 -0.0098249735
000350 79 c1 0b bd da ce cf 3d a1 63 d8 bd 6e 93 a1 3d
       -0.034120057 0.10146876 -0.10565878 0.07889448
000360 c2 77 01 bd 89 37 b3 bb de 4d 85 3d 86 ca bc bc
       -0.03160835 -0.005469267 0.065089926 -0.02304579
000370 9f 91 94 bc 5c 59 0a 3d 19 9f d4 bd 39 9e f7 3d
       -0.018135844 0.033776626 -0.10381908 0.120907255
000380 b3 3e 67 3d ed 33 00 3d 81 96 8c bd f3 9a 95 3d
       0.05645628 0.03129952 -0.06864644 0.07304945
000390 46 c5 b8 3c 1b 14 93 bc 32 9b c7 3d 9e c8 09 3c
       0.022555005 -0.017953923 0.09746398 0.008409647
0003a0 79 af 93 bd 09 a8 7b 3d 5c e4 8a bd 34 6e 0f 3c
       -0.07211203 0.061439548 -0.06781837 0.008754302
0003b0 70 97 6c 3c 5a ea 51 bd 11 56 7b bd 49 2a 7c bd
       0.014440402 -0.051248886 -0.061361376 -0.061563764
0003c0 3f e3 35 3d 87 6b cd 3d f2 da c5 3d 5d 2f c4 bd
       0.044406172 0.10030275 0.09660901 -0.09579346
0003d0 24 f7 fc 3d dd 3b 59 3d d7 4e d9 bd ce 61 be 3c
       0.12351826 0.053035606 -0.10610741 0.023239996
0003e0 da cb 1c 3d 28 2d d5 bd 81 a1 50 3d dc c3 c6 3d
       0.038280345 -0.104090035 0.050935272 0.09705326
0003f0 9f 66 b9 3d 62 e7 e9 bd c8 dc 9e b9 62 b7 ae 3d
       0.090527765 -0.11421086 -0.00030300603 0.08531071

arith.constant19 f4 [256, 64]
000000 02 d3 fb bd 85 00 41 bc 3c 7e b7 bc 54 97 5b 3d
       -0.12296106 -0.011779909 -0.02239906 0.053611115
000010 06 83 af 3b ea 83 34 3e 79 17 4f 3d a0 bd 22 bd
       0.0053561954 0.17628446 0.050559495 -0.03973162
000020 51 cd f4 3b 55 33 d6 3d 72 0d bf 3d 5b 11 fb bc
       0.0074707647 0.104590096 0.09328736 -0.030647924
000030 17 da e4 bd cc 92 61 bd 98 a7 42 3d cb e3 5f be
       -0.1117441 -0.055071637 0.04752311 -0.2186424
000040 1d 38 56 3d 47 ed b9 3d 02 e3 86 3d f0 34 1c 3e
       0.052299608 0.0907846 0.06586267 0.15254569
000050 ae 07 16 bb 35 e3 63 3d 41 c3 d0 3a b1 a7 83 be
       -0.002289276 0.055636603 0.0015927331 -0.25713876
000060 2c 40 1c bd 14 43 35 bd 7b 73 a0 3d c4 b7 8e 3c
       -0.038147137 -0.044253424 0.07834526 0.01742161
000070 98 97 26 be 1c 4c a7 3c 43 c4 cd 3d 1c 3d c6 3c
       -0.16268766 0.020422034 0.100471996 0.024199061
000080 0c 03 70 3b 76 ed 06 bd 9d cd c0 3d 64 b7 43 3d
       0.003662291 -0.032941304 0.094142176 0.047782317
000090 b0 20 c8 bd 09 e2 b8 bd 0b cb 71 bc fe 90 9a 3b
       -0.0977186 -0.09027488 -0.014757882 0.0047169914
0000a0 ad 72 76 3c ee b2 f7 3c 2f 70 af bd 86 ae 46 bd
       0.015041989 0.030236688 -0.08566319 -0.048506282
0000b0 cc 8b c5 3d f7 b3 0b 3e 92 89 24 be ab fe 7a 3d
       0.09645805 0.1364287 -0.16068104 0.061278027
0000c0 4d bb 93 3d 8e fc cf 3d 8b bd f4 bc 62 4d 39 3d
       0.07213459 0.10155593 -0.029875537 0.045239814
0000d0 a5 8e d0 3b 55 b4 0e bd 24 36 a3 3c bf 6c 9b bb
       0.006364661 -0.034839947 0.019923277 -0.004743188
0000e0 f6 2b f2 3d fe 48 00 bd 5d 25 a0 be ec ec 3f be
       0.11824791 -0.03131961 -0.31278506 -0.18742722
0000f0 c9 b2 a0 bb ab d7 7c be 09 54 92 bd dd f5 3d bd
       -0.0049041254 -0.24691646 -0.07144935 -0.04637705
000100 b5 c4 99 3d 52 bd 24 bd eb 5e 5a 3d a2 2e 82 3d
       0.07508222 -0.040219612 0.053313177 0.06356551
000110 cd 21 23 bd bd 65 d5 bd 63 cc 66 3c 02 dc 5d 3d
       -0.039827157 -0.10419796 0.0140868155 0.054164894
000120 1d 17 63 bc 55 a1 b2 3d c8 fe b3 3b 6d 2b 2e bc
       -0.013860491 0.08722178 0.005493019 -0.010630471
000130 52 7e 57 bd 4e 5f 65 bc cf 0e 7b bb 0d 4e 9b bd
       -0.052610703 -0.013999773 -0.0038308387 -0.075832464
000140 5e f8 ac 3d a7 f0 91 ba 1f 4c d6 3d 79 ea 9f bd
       0.0844581 -0.0011134342 0.10463738 -0.07808394
000150 19 2b 43 be ee d4 c9 bd 62 d9 82 bc 92 57 4a bd
       -0.19059409 -0.09855066 -0.015972797 -0.04939992
000160 0a 4e 13 bd e7 b2 bf 3c 0b 62 91 bc c1 85 3f bd
       -0.035963096 0.023400737 -0.017746946 -0.046758417
000170 f0 5b 96 bd 9d 44 81 bd 52 3f 68 bd 98 c4 cd bb
       -0.073417544 -0.06311915 -0.056701012 -0.0062795393
000180 72 3a 9a ba cc 0b 0d be 35 d3 e1 bd 58 b7 5e bb
       -0.0011766686 -0.13774031 -0.11026613 -0.0033983793
000190 5d 4a 08 3c 6e 97 bc 3d 2a 9e 88 bd 7a 00 ee bd
       0.008318511 0.092085704 -0.066707924 -0.11621185
0001a0 90 7d 13 be ab 55 bc 3d 4b 3a e4 3b 48 d4 15 bd
       -0.14403367 0.09196027 0.006964957 -0.0365794
0001b0 75 3f 13 bd d4 57 6f 3c 1c 07 3f bc 83 56 4a 3e
       -0.03594919 0.014608342 -0.01165941 0.19759564
0001c0 41 72 cd 3d 9e 36 28 bd a0 90 70 bd 1d 9b ca bd
       0.10031558 -0.041067712 -0.058731675 -0.09892867
0001d0 63 9d 6d 3c 72 01 f7 3d 5c 1b 16 be 0e 38 4a 3d
       0.014502856 0.120608225 -0.14658874 0.049369864
0001e0 ae 1d 18 be ae 4a 00 be fa c6 95 bd 69 16 29 3d
       -0.14855072 -0.12528488 -0.073133424 0.041281138
0001f0 26 a6 7e 3d be 8b ce 3d 40 fb 71 bd 4a 56 60 bd
       0.06217017 0.100852475 -0.0590775 -0.05476979
000200 58 2d d3 bd 30 00 43 bd 63 41 90 3d d6 c4 19 be
       -0.10311383 -0.0476076 0.070437215 -0.15016493
000210 45 df 4d 3d 13 fc 8c bd 4d 53 16 be 2f 13 db bd
       0.050261755 -0.06884017 -0.14680214 -0.10697018
000220 cb a5 c6 3d 38 b4 aa 3d f9 42 f9 ba 89 49 5e 3d
       0.09699591 0.08335155 -0.0019017152 0.054269347
000230 81 0f 87 bd be 3f 56 bd b0 3b 92 bc 82 5f 2b 3d
       -0.06594754 -0.052306883 -0.017850727 0.04183913
000240 ff c0 94 bd c4 69 4a 3d cd d6 8f bc 46 57 92 bd
       -0.072633736 0.049417272 -0.01755848 -0.07145552
000250 49 56 96 bd a5 7a 0b bc ee ca 60 bd d9 65 cf bc
       -0.07340676 -0.008513127 -0.05488103 -0.02531712
000260 da f4 dd 3c a3 e4 45 bd 08 42 9b bc bd e0 be bd
       0.027094293 -0.048313748 -0.018952385 -0.09320209
000270 ce a7 9c bd 8e 49 ee bc 33 a1 0d 3e d5 37 f9 3c
       -0.07649194 -0.029087808 0.13831024 0.03042213
000280 d3 97 94 3d 6a fa 55 3d 57 42 0f 3d 4c 36 3e bd
       0.07255521 0.052240767 0.034975376 -0.0464385
000290 b7 08 4d bd 57 ac 14 3c b3 59 15 bd 49 10 6f bd
       -0.05005714 0.009074292 -0.036462497 -0.05836514
0002a0 1a 43 6e ba 9d 43 40 bd 84 c0 8e 3d 46 40 23 3d
       -0.00090889784 -0.04693948 0.06970313 0.039856218
0002b0 34 bd 9c 3d d6 da 87 3d 2b c1 a9 3d 7d b6 4f 3d
       0.07653275 0.066335365 0.08288797 0.050711144
0002c0 ce 44 8a 3d a3 62 90 bd 9f 7c 0b be 70 a8 b0 3d
       0.06751405 -0.070500635 -0.13621758 0.08625877
0002d0 35 bf 1d 3b ff d4 b1 bc 11 aa 7b 3d 0e 20 f7 bb
       0.0024070267 -0.02170801 0.061441485 -0.007541663
0002e0 06 d3 47 bd 6b 01 ba 3c 49 f6 3e 3c 91 17 a1 3c
       -0.048785232 0.022705754 0.011655399 0.019664558
0002f0 0e 00 df bc 51 ad dd 3d 91 a1 23 3e 0f 32 b9 3d
       -0.027221706 0.10824073 0.15979601 0.09042751
000300 e0 87 a6 3d 1f f1 f3 3c 43 f8 ab 3a ce 6a f8 3c
       0.08131385 0.029778061 0.0013120252 0.030324366
000310 8e 28 89 bd 4f 48 0f be 6e e6 b0 bd b4 ec 9d 3d
       -0.06697188 -0.13992427 -0.08637701 0.07711163
000320 c0 7b c2 3c 4a 4a f8 bc 3e 37 f6 bc 89 4d 9f bb
       0.02374065 -0.030308861 -0.030055638 -0.004861538
000330 71 65 f9 bb 47 fc ca bd 10 1a df 3c 19 90 a2 3c
       -0.0076109697 -0.09911399 0.027234107 0.019844102
000340 bf 49 9d bc d6 cf e3 bd af a0 56 3c 99 15 aa 3d
       -0.019200204 -0.11123626 0.013099833 0.08304901
000350 8b 94 85 3d 16 cc 57 bd 0f ca e4 ba 13 ae 1f bd
       0.06522473 -0.052684866 -0.0017455238 -0.03898437
000360 4d 20 d0 3c c7 4d 40 3d 4d 41 7a 3c a2 aa c6 bb
       0.025406027 0.046949174 0.015274358 -0.0060628215
000370 a9 3e 96 3d 7d 3f 0b bd b0 7b f9 3d 78 e9 4a 3d
       0.0733617 -0.033996094 0.12181795 0.04953906
000380 c3 15 1d bd cf 8c ae 3c 9d 03 91 bb a2 c8 03 3d
       -0.03835083 0.021307377 -0.0044254796 0.03217376
000390 5b 27 de 3d 4a df cb bd b8 5d 6c 3d bf 8c 8e 3d
       0.1084735 -0.099546984 0.057706565 0.06960439
0003a0 30 9c 31 3c f2 a8 2e bd b1 de ef 3d 27 e8 a1 3d
       0.010840461 -0.042641588 0.11712397 0.07905608
0003b0 18 20 08 be 36 b0 8c bc b3 a6 0d bd 99 80 28 bd
       -0.13293493 -0.017173868 -0.034582805 -0.041138265
0003c0 e6 86 54 bd 48 6d 94 bc 46 53 79 bd cb bb 27 3d
       -0.05188646 -0.018118516 -0.06087043 0.040950578
0003d0 45 88 8c 3d 03 77 dd bc 1f c5 83 bd 11 7c f5 3c
       0.06861929 -0.027034288 -0.06434082 0.029966386
0003e0 b0 d8 19 3d 25 ad b5 bd c6 4d 5b 3d 22 dc 21 3d
       0.037560165 -0.08870915 0.053540967 0.039516576
0003f0 57 6e cf bd f2 00 15 3e a4 d7 53 3d 57 93 d2 bc
       -0.101284675 0.14551142 0.051719323 -0.025705023

sequential_1_1/lstm_2_1/while/lstm_cell_1/add_1/ReadVariableOp f4 [256]
000000 69 0a f4 bb 65 c5 3a bc ad 2a d1 bc f0 6b a8 bc
       -0.00744753 -0.011399602 -0.025533045 -0.020559281
000010 06 59 a5 b8 63 c5 6f 3c 20 8c 21 bc a3 9a 3b bc
       -7.884395e-05 0.014634463 -0.009860069 -0.0114504425
000020 a1 63 9f bc 75 9d 26 bc f8 a0 d6 bb 39 f4 48 bd
       -0.019456686 -0.010169377 -0.0065499507 -0.049061034
000030 b2 df 1f 3d ee da b1 3d 44 1c 77 3c 92 4b fc bc
       0.03903169 0.08684336 0.015082423 -0.030797753
000040 09 b6 98 3c 6e 1e 7e bc 8b 9f 19 bd 31 06 43 3c
       0.018641489 -0.015510185 -0.037505668 0.011903332
000050 44 a5 42 bc 5f 9d b2 bc cf 89 1a 3d 00 06 d4 3d
       -0.011880223 -0.021803556 0.03772908 0.10352707
000060 5f 1a 62 3d 8f d4 09 3d 70 e7 a6 3a 27 58 96 3c
       0.05520093 0.033649977 0.0012733769 0.018352581
000070 dc da c2 3c ae f1 7b bc ac af da bb f6 8c 04 3d
       0.023786 -0.015377445 -0.0066737738 0.032360993
000080 c9 f9 f1 bc 3a bd e3 3c f5 5d 39 bd 14 6f 29 bd
       -0.029538052 0.027800191 -0.04525562 -0.041365698
000090 82 12 0a bd 5e ed fe bb 73 e2 bf 39 a5 24 9b 3d
       -0.033709057 -0.007779761 0.00036599077 0.07575349
0000a0 5e c5 47 3d 99 c4 13 3b 37 28 d5 3c de cb 84 bc
       0.04877221 0.0022547601 0.026020152 -0.016210493
0000b0 77 af 72 bd f3 e6 8b 3c 0f cc 29 3d f8 07 a4 3d
       -0.059249368 0.017077899 0.04145437 0.080093324
0000c0 7c 06 d4 bb 4e b3 24 bc 5f 36 14 3b 91 10 b3 bc
       -0.0064704996 -0.010052515 0.0022615416 -0.021858485
0000d0 0e bc 99 3d 01 26 fe bc e7 0c c7 3b da 7e 94 3c
       0.07506572 -0.031023981 0.006074536 0.018126894
0000e0 ca 89 8f bc c6 8c 9a bc ec 15 8e 3c 3b 74 46 3d
       -0.017521758 -0.018865954 0.017344438 0.04845069
0000f0 a8 76 ac bc fc ae 8b 3c 7d bc 4c 3c 5e 12 61 3c
       -0.021052673 0.017051212 0.012496111 0.013737289
000100 d3 f9 75 3f ca 69 7a 3f 8a c0 76 3f 48 34 7e 3f
       0.96084327 0.9781767 0.9638754 0.99298525
000110 94 18 72 3f c1 57 78 3f ff 4e 81 3f df 9e 7a 3f
       0.94568753 0.970089 1.0102233 0.9789867
000120 f8 17 75 3f df 96 71 3f 7d ea 7f 3f b3 8f 74 3f
       0.957397 0.94370836 0.99967176 0.9553177
000130 3e d0 7b 3f ee ae 83 3f 45 a4 7e 3f e6 aa 8a 3f
       0.9836463 1.0287759 0.99469405 1.0833404
000140 86 16 81 3f f4 6d 79 3f 2b 84 6f 3f 1f d2 81 3f
       1.0084999 0.974334 0.9356105 1.0142249
000150 42 fe 7b 3f 77 c0 72 3f 89 f3 82 3f 1f 4c 79 3f
       0.9843484 0.9482493 1.0230571 0.97381777
000160 b0 be 71 3f f9 92 84 3f 46 d2 75 3f 9f 65 7a 3f
       0.9443159 1.0357352 0.96023977 0.9781131
000170 6b 1f 7f 3f 1c 25 86 3f af 84 80 3f 12 bf 7d 3f
       0.99657315 1.0480075 1.0040492 0.99119675
000180 34 20 77 3f f1 da 74 3f 39 71 7f 3f fa e1 72 3f
       0.96533513 0.9564658 0.9978214 0.9487606
000190 04 78 75 3f b5 2c 7b 3f 66 0b 7b 3f 3c 75 8a 3f
       0.95886254 0.9811509 0.9806427 1.0817027
0001a0 ee 4a 72 3f 93 31 7a 3f fe 4d 86 3f 8f 91 77 3f
       0.94645584 0.97731894 1.0492551 0.9670648
0001b0 f8 a5 6a 3f 49 1f 7f 3f 13 bd 83 3f 46 a6 85 3f
       0.916595 0.9965711 1.0292076 1.0441368
0001c0 36 ba 7d 3f 1d b5 73 3f d0 49 73 3f 3e ea 73 3f
       0.9911226 0.9519823 0.95034504 0.952793
0001d0 b2 e7 87 3f d5 71 77 3f b7 f2 82 3f 07 b7 85 3f
       1.0617583 0.9665807 1.0230321 1.044648
0001e0 db c1 70 3f 28 1b 6f 3f a2 b2 84 3f dd 9f 82 3f
       0.940458 0.9340081 1.0367014 1.0205036
0001f0 0c cf 7b 3f e7 ff 80 3f 1e fd 7e 3f 85 76 73 3f
       0.98362803 1.0078095 0.99604976 0.9510272
000200 b3 a2 5a 3c c2 35 0c bc 86 5d 31 bd 90 4e 49 bd
       0.013344455 -0.008557739 -0.04330208 -0.04914719
000210 53 60 c1 bd 29 81 c0 bd 8b 4c 90 bc de 72 e9 3c
       -0.094422005 -0.09399635 -0.017614624 0.028497156
000220 eb ec 48 bd 62 6f 1c bd c7 a3 68 bb 50 e7 96 bc
       -0.049054068 -0.03819216 -0.003549801 -0.018420845
000230 d8 d7 f5 3c 12 ff 70 3d ca ff 97 3c 93 fe 82 3d
       0.030010149 0.058837004 0.018554587 0.063962124
000240 2c 6a ae 3c a5 d5 9f bc 0f 7d dc bc f2 71 50 39
       0.021290861 -0.019511053 -0.026915101 0.00019878874
000250 38 4a 00 3d 1e d0 af bd aa 7e 1e bc b5 cf ab 3d
       0.03132078 -0.08584617 -0.009673754 0.08389226
000260 7a a8 75 3b 30 11 e2 3c 3e c1 0c 3d 57 54 8d 3c
       0.0037484453 0.027596086 0.034363978 0.01725213
000270 1c 2c c8 bc a5 9d b2 3c b1 bb 8a bc 03 a7 81 3c
       -0.024435095 0.021803686 -0.016935201 0.015826708
000280 16 84 e6 bc 51 2a 3d bc d3 91 a3 bd 25 fd 32 bd
       -0.028139155 -0.011545734 -0.07986798 -0.04369845
000290 21 fb 3b bd c6 b2 be 3c 08 95 2e 3d 6e d5 c0 3d
       -0.045893792 0.023278605 0.042622596 0.094157085
0002a0 cb 55 13 bd 90 f9 a2 bc 8c 83 08 3d 19 64 16 bd
       -0.03597049 -0.019894391 0.033328578 -0.036716554
0002b0 2e 24 97 bd 70 31 54 bb ce a9 1e 3d 7c 44 1b 3d
       -0.073799476 -0.00323781 0.038736157 0.03790711
0002c0 e5 26 b3 b9 b3 72 4c bd 7c 80 06 bd e6 6a b9 bd
       -0.0003417052 -0.049914073 -0.032837376 -0.090535924
0002d0 d9 f2 7f 3d ed c8 51 bd 8d 47 93 3d cd 41 cf 3c
       0.062487457 -0.05121701 0.071913816 0.025299931
0002e0 3c 42 a0 bd cb d3 42 bd 53 a2 93 3d 87 6c 2b 3c
       -0.07825133 -0.047565263 0.07208695 0.010462887
0002f0 37 4d 03 bd 2d 26 1e 3d e3 89 83 bd 69 c5 e8 3c
       -0.03205606 0.038610626 -0.06422784 0.028414445
000300 35 f6 29 bd 4d 52 e8 bc 48 f0 e2 bc d2 45 b1 3b
       -0.041494567 -0.028359557 -0.027702466 0.0054099346
000310 92 36 1c 3d 89 4f 30 3d 68 85 f3 39 8a b6 33 39
       0.03813798 0.0430446 0.00046447967 0.00017138771
000320 09 04 f2 bc dd 50 b6 3b 28 1d 84 3c c3 a1 56 bd
       -0.02954294 0.005563839 0.016127184 -0.05240036
000330 5d 8c 1f 3d 9c 0e 69 3d b0 fd 6d 3c ac 45 a5 3c
       0.03895222 0.0568987 0.014525816 0.020174824
000340 a4 6e c0 3c 27 23 6a bc f2 f2 4a 3c d9 ea 66 3c
       0.023490258 -0.014290608 0.012387024 0.014094078
000350 c4 91 a3 bc c7 ec 5e 3c 77 9a 1f 3d 9f fa 9f 3d
       -0.019966967 0.013606257 0.03896567 0.07811474
000360 86 43 c4 3d aa 63 bd 3c 8f af 1b 3b 96 6d 91 3c
       0.095831916 0.023118813 0.0023755764 0.01775245
000370 82 57 5e 3c af 02 06 3d e9 a7 c9 39 2d 81 c1 3c
       0.013570668 0.032717403 0.0003846281 0.023621166
000380 ab dd 00 bd e1 3e 6f 3c 4a c4 2b bd a0 23 e9 39
       -0.0314614 0.014602394 -0.041935243 0.00044467766
000390 19 f2 42 bc c6 e4 1e bc c4 f4 6c 3c 21 af 89 3d
       -0.011898541 -0.0096980985 0.014462654 0.06722856
0003a0 19 c2 ca 3d be 17 16 3d 39 2e d1 3c 03 8d 2a 3b
       0.099003024 0.036643736 0.025534736 0.002602399
0003b0 24 29 1d bd f1 3f 4d 3c 5b 3c 2a 3d ad cf e5 3d
       -0.038369313 0.012527452 0.041561466 0.11221252
0003c0 9f 1d 2b 3c df 21 9d 3c 4c 5c 1d bc 4e 3c 5b bc
       0.010444074 0.01918119 -0.009604525 -0.013381077
0003d0 95 87 ac 3d 7e 41 22 bd e8 66 66 bc 9f 2e 9e 3c
       0.08424298 -0.03961324 -0.014062621 0.01930934
0003e0 da fb 3d bc ec 55 12 3d b4 df dc 3b 95 a3 6c 3d
       -0.011595691 0.035726473 0.0067405347 0.05777319
0003f0 82 88 b7 bc fb 1f 90 3c 14 95 af 3d 89 3e db 3c
       -0.02240396 0.017593374 0.08573356 0.026763218

arith.constant23 f4 [256, 64]
000000 fe 83 1f 3e a4 52 9a 3d ca 79 91 bd 83 42 d1 3d
       0.15577695 0.07535294 -0.071033075 0.10217764
000010 75 6a 1f be a7 f9 4f 3e 84 b5 9f bd 1d be 15 bd
       -0.15567954 0.20310079 -0.07798293 -0.03655826
000020 c6 c9 ef bc 35 bf 85 bb 87 b3 28 bd 4a 10 e9 bd
       -0.029271018 -0.0040816315 -0.041186836 -0.1138006
000030 78 f3 10 3e 29 4b 74 3e bb c8 fd bd 29 9a 32 3e
       0.14155376 0.23856796 -0.12391802 0.1744162
000040 06 56 02 3d 7f f4 99 3d 72 11 73 3e 98 b5 19 bc
       0.03182032 0.07517337 0.23737124 -0.009381674
000050 98 40 b8 bc e4 19 38 be b8 2d 7c bd 14 61 cb 3d
       -0.022491738 -0.17978626 -0.06156704 0.099306256
000060 53 14 3a 3e a5 a9 03 3e 61 cf 1c bd 37 cc 36 bd
       0.18171816 0.12857683 -0.03828371 -0.04462835
000070 89 f7 82 bd 97 8d 82 bd 52 10 21 bd d6 0c b4 bc
       -0.0639487 -0.06374662 -0.039322205 -0.021978777
000080 4b 82 36 bc 6e cf ec 3d 5a 29 cd bd ac 97 cf 3c
       -0.011139463 0.115630016 -0.10017653 0.025340877
000090 7b 88 4d 3e 13 21 7d bd 5c 2b 6c 3d 11 b1 16 3e
       0.20071594 -0.06179912 0.05765854 0.14715983
0000a0 9f 11 40 3e 38 c4 46 3e 0a 7c c0 3d 65 d1 2e 3e
       0.18756722 0.19410789 0.093986586 0.17072065
0000b0 fe e2 7a 3d 66 7a 57 3d e9 5b ac 3c 1e 6b cc bd
       0.061251633 0.052606963 0.02103992 -0.099813685
0000c0 92 20 77 bd ab 17 bd bd 76 5d c4 3d 77 99 0b 3e
       -0.060333796 -0.0923303 0.09588139 0.13632761
0000d0 ab 31 71 bd a4 c0 d5 3d 0a 65 e7 bd c0 f9 9b bd
       -0.058885258 0.10437134 -0.112985685 -0.076159954
0000e0 93 62 eb 3d fb bf b2 3d ba 02 e2 3c ba bf b5 3d
       0.11493411 0.087280236 0.02758919 0.088744596
0000f0 8e 30 4f 3d 7f f1 6d 3e 4b 11 45 3d a2 40 a4 3d
       0.050583415 0.23236655 0.048112195 0.0802014
000100 c7 6a 36 bd de 17 ce bd cc eb 5f bd cf 01 2b bc
       -0.044535425 -0.10063146 -0.054668233 -0.010437443
000110 0b e9 68 3a 39 18 1a 3e 68 a7 13 be 38 26 a1 3c
       0.0008884824 0.15048303 -0.14419329 0.019671544
000120 19 bd c9 bd 17 c5 37 be 3d fb 2b be cb 48 02 bc
       -0.09850521 -0.17946278 -0.16795059 -0.0079519255
000130 36 55 95 3e 75 25 83 3d 83 e7 b5 bb ff 92 68 3d
       0.29166573 0.06403629 -0.00555128 0.05678081
000140 b2 59 59 3c 6e 01 c8 3d 69 ec 33 bd 43 12 d2 3d
       0.013266014 0.09765898 -0.04392663 0.102573894
000150 3a 3e ac 3d 30 2a 40 3e 6b 5f fa 3d e1 53 a9 bd
       0.08410306 0.18766093 0.12225231 -0.08267952
000160 39 1a ca bd a7 91 54 bd e1 1d 3c 3d 6c e6 0f be
       -0.09868283 -0.051896717 0.045926932 -0.14052743
000170 ba 94 23 bd 8b 52 c4 3d 2e d4 04 3d 2a df 10 be
       -0.03993676 0.09586056 0.032428913 -0.1414763
000180 2e 61 51 3d 91 a3 10 be ba 72 c2 bd 1e 96 86 be
       0.05111807 -0.14124896 -0.094945386 -0.26286405
000190 d9 0c 04 bc ce 22 20 3e 7f 6a 56 be 25 cc 04 bd
       -0.008059704 0.15638277 -0.20939063 -0.03242125
0001a0 2f 6f 73 be 81 6e be bd b7 6f c7 bc af bc 28 be
       -0.23772882 -0.09298421 -0.024345262 -0.16478227
0001b0 64 3d a0 3d 9c 53 2a 3d 83 98 b1 bc ca 10 23 be
       0.07824209 0.041583642 -0.021679169 -0.15924373
0001c0 e2 fa 1f be b3 3d 53 3c ec e4 8b bd 9f 97 03 3e
       -0.15623048 0.012893128 -0.06830773 0.12850808
0001d0 9d 5d 70 bd 53 7b e0 3d 74 c5 4c 3d af 7c dd bd
       -0.058683027 0.10961022 0.049992993 -0.10814797
0001e0 a6 70 7c 3d 7b 96 9e 3b 56 25 2b bc 47 00 13 be
       0.061630867 0.004839716 -0.010445913 -0.14355575
0001f0 7a 78 69 3d 60 42 25 3e cb d5 40 3e b4 e5 07 3c
       0.05699966 0.16138601 0.18831556 0.008294512
000200 9a 19 d6 3d ac 28 37 3d a5 77 67 bd 19 4a 72 be
       0.10454102 0.044716522 -0.056510586 -0.23661079
000210 2c 97 de 3c 8c 91 5c be 8e 47 0d 3e 5a 63 2a be
       0.027171694 -0.21539897 0.13796827 -0.16639462
000220 d2 24 9f 3d 7f 28 e2 3b 53 ee 30 be 06 30 cf 3d
       0.07770695 0.0069018 -0.17278413 0.101165816
000230 80 5a 57 be d7 b1 80 3e 19 63 3d bd 50 70 4c 3d
       -0.21030617 0.2513568 -0.046237085 0.049911797
000240 f9 76 45 bd 25 49 a4 bb 94 5e cc 3c ec c0 37 3c
       -0.048209164 -0.0050136023 0.024947442 0.01121543
000250 06 c1 54 3c 69 3a db bd 56 9d f5 bd 58 85 35 bf
       0.0129854735 -0.107045 -0.119929 -0.7090659
000260 ec a7 1b 3e 8a 32 14 be a4 0c a2 bd 92 79 4a 3c
       0.15200776 -0.14472404 -0.07912567 0.012358086
000270 0c 11 66 be bc c3 c0 be 49 ec 47 bd 4a bd 58 bd
       -0.2246744 -0.37649333 -0.048809323 -0.052914895
000280 4e b5 30 3e d5 e9 8a 3e 5e d3 ef 3d ad 3a d0 bc
       0.17256662 0.27131525 0.11710237 -0.025418604
000290 df 5c a8 bd d0 22 9c be 59 84 52 3e 59 67 c9 be
       -0.08220839 -0.3049531 0.20558299 -0.3933666
0002a0 91 17 60 3e f1 b7 23 be 52 16 95 bc b8 ef fe bd
       0.2188399 -0.15988137 -0.01819912 -0.124480665
0002b0 03 b0 59 bd bc 77 f4 3b 62 d8 6d be 99 72 be 3d
       -0.053146373 0.0074605625 -0.23227075 0.092992015
0002c0 bc 60 ca 3d 01 66 7d be cf 8b 47 bd cf c6 93 3c
       0.09881732 -0.24745943 -0.048717316 0.018039135
0002d0 67 9e 2b 3e e9 a1 1e bc c5 9f bc bd 79 27 3b 3e
       0.16759644 -0.009682157 -0.09210161 0.18276776
0002e0 42 16 78 be cc 47 8d 3c 0a d8 4e be fc 03 a1 bd
       -0.2422724 0.01724615 -0.201996 -0.07862088
0002f0 71 c4 1d be 8e 80 33 be b8 09 5e be 4c 5c f2 bd
       -0.15406968 -0.17529508 -0.21683395 -0.118340105
000300 09 fc 81 3d d1 06 c4 bd a5 3d f3 3d 0e 8d c4 bd
       0.063469 -0.095716126 0.11876992 -0.095972165
000310 e7 a0 13 bd 07 ba ed bd 7b 0a c5 3d e2 36 4e 3d
       -0.03604212 -0.116077475 0.096211396 0.05034531
000320 71 be 3a bd 3e 0c 0c be b2 3f 04 be fd a8 b0 bc
       -0.045591775 -0.13676545 -0.12914923 -0.021564955
000330 3c 67 f0 3c 15 c6 a5 bd 15 ca 27 3c 31 5d c3 3d
       0.029346101 -0.08094422 0.010241051 0.09539259
000340 c6 34 f5 3d 24 9e d3 3d d3 d8 ca bd d4 0c 59 3c
       0.11972956 0.10332897 -0.09904637 0.013247687
000350 40 b0 fd bc 1c 32 f0 3d 34 bc 61 bd f3 4d d1 3c
       -0.030967832 0.117283076 -0.055111125 0.025549864
000360 cb 75 14 be 2d 98 20 3b c1 5b 17 be a0 c5 22 3d
       -0.1449806 0.0024504766 -0.14781095 0.03973925
000370 e0 10 c7 bd 8d 0b 0c 3c e6 f5 d2 3d d2 9f 80 bd
       -0.097200155 0.008547676 0.10300808 -0.06280483
000380 0b 3c b6 3b 12 a1 51 3e 02 1e bd 3d 72 06 f5 3d
       0.005561357 0.204716 0.09234239 0.1196412
000390 76 90 0d be 73 52 e5 bd b0 54 ea 3d fe 71 98 bc
       -0.13824639 -0.111973666 0.11441934 -0.018609043
0003a0 3c bb 0e 3e cf 60 33 3d 6d f3 00 3c 5e 2f fe bb
       0.13938612 0.043793496 0.007870537 -0.0077571115
0003b0 cb d1 0a be 1b 6b 54 3d a5 7a 09 be 2b 90 58 3e
       -0.13556592 0.051859956 -0.13425691 0.21148746
0003c0 09 49 21 3d 7a fe 7b bd 73 79 41 bd 00 e2 14 be
       0.039376292 -0.061521985 -0.047234964 -0.14539337
0003d0 ca 06 2e bb 45 b8 ef bd b2 e6 22 bd 7a 64 b4 3d
       -0.002655434 -0.117050685 -0.03977079 0.08808227
0003e0 aa 5f 5d be 10 81 80 be d8 86 d4 bd 0c 42 30 3c
       -0.21618524 -0.25098467 -0.10377282 0.010757934
0003f0 50 5e 1c 3d a2 2a 42 bd f3 15 40 bd 30 af a0 3d
       0.03817588 -0.04740394 -0.046895932 0.07845914
